accounts/data.pth (torch, 9386 bytes, 6 tensors)

l1.weight f4 [8, 135]
00000000: d79d 033f 135f 2a3f 3123 aebe 4edb bb3e
00000010: 79b4 abbe db09 e4be ec00 3abd 3441 1b3f
00000020: d44b adbf 698c 95be 9cdc 043f d86c a6bc
00000030: 3551 d2be c883 f03e c866 68bd 7571 38bf
00000040: d996 063f 6e30 36be 7a6f 173f 2c03 5d3e
00000050: bd54 1fbe 7369 263e 79dd b6bd 32ab 093f
00000060: 03b1 8f3e fcb0 953f 15b6 f8be 3a4e 85be
00000070: 72c6 e23e 997a 9a3e d5db 363e 20a0 2d3e
00000080: cffc f83e f565 49be a621 4eba 0460 e2bd
00000090: 1d49 c73c 110c 5c3d 6420 ecbe 90ca 6abf
000000a0: d732 c83e 2eb7 09be d996 603d 793b 033f
000000b0: 1528 af3e 3aec 47bf 6c0d 163f 5c20 813f
000000c0: 873a 1bbe 4f04 0b3f d3f8 ff3e 6e2a ecbe
000000d0: 739a 193f abe2 203f 6b33 363f f1e7 3e3f
000000e0: 717f 463f 82dd c3bc 0b6b 8d3f 1b3f 143e
000000f0: 2b5e 743e e18f 0cbe d535 c53e 4622 f73e
00000100: 65fe eebd 1cb6 393f f008 d3be 0553 cd3f
00000110: a543 f33e a3fe 023f 7c73 663f 0322 f6bd
00000120: 0379 9a3b d878 e33d 4f38 e3bd fef1 a4be
00000130: 1313 92bd 2ec2 ca3d 4a81 e23d be68 5ebe
00000140: 3cc8 bcbe 6d51 2e3e 328a b53f a7a1 333f
00000150: 6d02 623f 98b1 11be 527d 59be 5b22 fbbe
00000160: e865 acbf c031 1f3f ae3e dc3e 3702 763e
00000170: d2ff 95bf 1167 12bf b078 743e a68d 9bbe
00000180: 22b9 d23e 982f fd3e d25e 393e 3090 4b3f
00000190: 2ff0 62be e389 eb3e 3794 24bf d42a 883d
000001a0: 92ff aa3e 2218 d4be d1c5 1dbe f3ae 9abe
000001b0: 9678 45be b6da 953f 9a1c 803e 0278 a8be
000001c0: 2351 0cbe 9c82 bf3f 0365 0d3f 5e9e 43be
000001d0: 88b6 0f3f 449f 1b3f b2a9 92bf 59f3 3e3c
000001e0: df9b e2bd e26e 07bf c00a 6cbd 7ec4 6ebd
000001f0: f7ad 24bf 770d 003f 33fb 1fbf 4d1e 29bd
00000200: 1ee8 5dbd 73ea 573f e662 d7be 3cb8 693e
00000210: 1ea6 b73e cba3 75bf 54e5 7a3e 83c5 9dbe
00000220: 4643 0bbe b8be de3e c7dc 1e3e cbbf a9be
00000230: 4953 a13d 7876 2a3e e6db 7fbd c88b ac3e
00000240: ce85 f83d 5bc2 df3e 99d1 82be 9b0a 7dbe
00000250: 45e0 e5bd 0d47 6ebd 4d98 bcbe 8475 ccbc
00000260: c073 5bbe afa3 75bd 2b8b 9a3e 303b 28be
00000270: cf50 903e 58d2 3a3e b231 6b3f a828 04be
00000280: 7513 5dbc 5a19 85be 38c8 8b3c cb59 b1bd
00000290: dd83 573c b9ec 25bd 5544 c3be 759e 093f
000002a0: 2f41 4c3f c455 223e 1be5 41bd 27f8 d53e
000002b0: 0b48 fa3e 0570 f8be ee69 853f 1098 883e
000002c0: 3849 9d3d ebe3 d33d d7f0 80bf a9c2 37bd
000002d0: 9e35 5dbf 1476 893e be9f 60bf 3056 123f
000002e0: 9931 053f 832e 673f 9ab5 8dbf e099 fd3e
000002f0: d4a3 98bd f1b0 043f 71d9 fc3e 3d33 7f3c
00000300: 8424 e0be 9642 efbd ce33 e1bd 0ab2 59bd
00000310: badd b43d 278e 743d 9825 1bbe 69cc 003e
00000320: 2830 17be 159b 313e 89a2 b5be 7df0 6fbe
00000330: 9f2b 803e ba13 063f 6f62 8b3d c46c 08bc
00000340: 1049 a53d 7405 a43c 3227 ff3e f853 623e
00000350: b6d0 8b3e 5a73 223e ac11 33bf 18a2 e5bd
00000360: 1733 4f3e e145 8cbf 4a63 0fbd 8c57 8f3e
00000370: 7484 85bc 0b07 d63e 51ff d53e 025f e6bd
00000380: ac86 ad3e 271c 3e3e 7ed4 b3bb e6d8 4f3f
00000390: a9bb a73e c991 d13e d425 df3e f41c 4f3e
000003a0: dc88 393e 37db e03e 697f 1cbe dc34 cc3e
000003b0: 26cc 96bd ea41 2b3f 76a0 8e3e 43a9 26bf
000003c0: f03f 863e 9e68 f63e 3a11 eb3d f33a 8abe
000003d0: aa17 033f d027 8cbe bc12 ba3e 1ee5 ee3e
000003e0: 41be 08bf 8316 bb3c 8fee 46be c5d8 de3e
000003f0: 4df6 cdbd 9565 3e3f b8a2 923e e2ec 61be
0.5141272 0.6655132 -0.34011224 0.36690754 -0.33536127 -0.4453877 -0.045411035 0.6064637
-1.3538766 -0.29208687 0.51899123 -0.020315573 -0.4107758 0.4697554 -0.056738645 -0.7204812
0.52573925 -0.17791912 0.59154475 0.21583241 -0.15559669 0.16251163 -0.08928961 0.5377685
0.28064737 1.1694636 -0.48576418 -0.26036245 0.44292027 0.3017166 0.17857297 0.16955614
0.48630378 -0.196678 -0.00078632904 -0.1105347 0.024326855 0.053722445 -0.46118462 -0.91715336
0.39101288 -0.13448784 0.05483136 0.51262623 0.34210268 -0.7809483 0.5861423 1.0088
-0.15159045 0.5430345 0.49994525 -0.4612612 0.60001296 0.6284587 0.7117221 0.74572664
0.7753821 -0.023909334 1.1048292 0.14477198 0.23864047 -0.1372676 0.38517633 0.48268336
-0.11669616 0.725435 -0.41217756 1.604096 0.47512546 0.51169795 0.90019965 -0.12018206
0.0047141328 0.111070335 -0.110947244 -0.32215875 -0.07132544 0.09900318 0.11059816 -0.21719643
-0.36871517 0.17023249 1.4182799 0.70168537 0.8828495 -0.14227903 -0.21239212 -0.4904965
-1.3468599 0.6218529 0.4301657 0.24024282 -1.1718695 -0.57188517 0.23874164 -0.30381507
0.4115687 0.49450374 0.18102577 0.7951689 -0.22161935 0.46003637 -0.6428866 0.06648794
0.3339811 -0.41424662 -0.15407492 -0.302116 -0.19284281 1.170737 0.2502182 -0.3290406
-0.13702826 1.4961734 0.55232257 -0.19103381 0.56137896 0.60789895 -1.1458037 0.011654698
-0.11064886 -0.5290357 -0.05762744 -0.05829286 -0.6432795 0.50020546 -0.62492675 -0.041288663
-0.054176442 0.84342116 -0.4206764 0.22824186 0.35868925 -0.95953053 0.24501544 -0.30814752
-0.13599882 0.43504882 0.15513907 -0.3315414 0.078772135 0.16646755 -0.06246557 0.33700395
0.12134896 0.4370297 -0.25550535 -0.24711077 -0.11224417 -0.058173228 -0.36834946 -0.02495838
-0.21430874 -0.059970554 0.30184302 -0.16428828 0.28186652 0.18244302 0.91872704 -0.12906134
-0.013493408 -0.25995904 0.017063245 -0.08659705 0.013153997 -0.04050896 -0.3813807 0.5375741
0.7978696 0.1585303 -0.047337633 0.41790888 0.4888309 -0.48522964 1.0422952 0.26678514
0.07679981 0.10346206 -1.0073498 -0.044863377 -0.8640994 0.268479 -0.8774375 0.5716276
0.52028805 0.90305346 -1.1071045 0.4953146 -0.07453123 0.5183249 0.49384645 0.015576181
-0.4377786 -0.11682622 -0.10996209 -0.053148307 0.088313535 0.05970588 -0.1515106 0.12577976
-0.14764464 0.17344315 -0.35475567 -0.23431583 0.2503328 0.5237385 0.06805884 -0.008326713
0.08070576 0.020022132 0.4983459 0.22102344 0.2730767 0.15864316 -0.6994884 -0.112125576
0.20234333 -1.0958825 -0.0350068 0.2799648 -0.01629851 0.41802248 0.41796353 -0.1124859
0.3389181 0.18565427 -0.0054879775 0.81190336 0.3276036 0.40931538 0.43583548 0.20225888
0.18118614 0.43917248 -0.15282978 0.39884079 -0.07363157 0.6689745 0.27856797 -0.6510202
0.26220655 0.48126692 0.11477895 -0.269981 0.51207983 -0.27374125 0.36342418 0.46659178
-0.53415304 0.022837883 -0.1942694 0.43524757 -0.10056744 0.7437375 0.2863977 -0.2206302

l1.bias f4 [8]
00000000: 8967 9e3f 99e1 813f fb8f 153f a6fc 133f
00000010: fc01 f73e f0e3 313f 9340 2b3f 8c03 a03f
1.2375346 1.0146972 0.5842282 0.57807386 0.482437 0.6948843 0.6689541 1.2501082

l2.weight f4 [8, 8]
00000000: e72a c1be 89e5 cb3f 55ff db3e 485f 3c40
00000010: 7bca 473e 8f23 3f40 b6ca 8c3e 5a0b e1be
00000020: 7b1f b2bf 51e2 31bf 218c e6be c3c3 58bf
00000030: b381 0440 ce8d 663f 33ad 533f 4755 0440
00000040: 45e0 e53d 321e 403f 0582 0240 cbff 2840
00000050: a590 0c40 2e2e 903f 1d2a 3540 9469 35bf
00000060: ea38 0bbf 2dad ad3f 988a bf3f 4579 73be
00000070: 9e5d 933f 06a6 243f 68a2 9ebf 1151 60bd
00000080: 32ab 83bf 5024 c43f f3ae c13f 9fa0 edbe
00000090: be78 b43f f823 e1bf be0e e33f 791e b13e
000000a0: 575e d7bf 8434 a93f 0b52 873f 1cef 853e
000000b0: b298 be3f daab 9ebe 8daa 9abd 0b83 303f
000000c0: 6671 3140 7590 883f ce2f a4bf 2850 b6bf
000000d0: 31d7 ba3e 699d 893d 0c73 0b3f cd42 0040
000000e0: 9096 c4be 3732 0140 edaa c13f 032f 2fbf
000000f0: 3266 39bf 4558 a8bd 880f b1bf ba5a be3f
-0.37728044 1.5929424 0.4296824 2.9433155 0.19510834 2.9865453 0.27498406 -0.43953973
-1.3915857 -0.69485956 -0.45028785 -0.8467371 2.0704162 0.90060127 0.82686156 2.067705
0.11224417 0.75046074 2.0391858 2.6406124 2.1963284 1.1264093 2.8306954 -0.70864224
-0.5438372 1.3568474 1.496417 -0.2377673 1.1512945 0.6431583 -1.2393312 -0.05476481
-1.028662 1.5323582 1.5131515 -0.46411607 1.4099348 -1.7589102 1.7738874 0.3459356
-1.6825665 1.3219151 1.0571913 0.26158988 1.4890349 -0.30990487 -0.07552061 0.68949956
2.7725463 1.0669085 -1.2827089 -1.4243212 0.36492303 0.06719477 0.5447242 2.0040772
-0.3839612 2.0186899 1.5130287 -0.6843111 -0.7242156 -0.08219961 -1.3832865 1.4871438

l2.bias f4 [8]
00000000: 1d88 853d 050e 383e 3418 f63e 5c7e fcbe
00000010: 8458 41be 21ad 42be f57b c83f 61e3 593f
0.06520102 0.17974098 0.4806534 -0.49315155 -0.18881422 -0.19011356 1.5662829 0.8511258

l3.weight f4 [14, 8]
00000000: fc4d 01c0 642b 313f 43f4 20c0 741b e7bf
00000010: aec5 673e 2666 1c3f 5e83 a8be 7712 923f
00000020: c67c 1fc0 4b7e 92bf 99f8 30c0 1e32 77c0
00000030: b285 05c0 85cc fabf a280 953f 4bf4 fc3e
00000040: a643 00bf 7bf8 ef3e 52fe 0f3f c2a3 66bf
00000050: 2aed ec3e 46b9 6a3e a569 18c0 c664 28bf
00000060: f07d 183f 07f8 763e 9be7 953c 8d3b 6bc0
00000070: 47a7 2a3f 66bc 96bf 8739 64be d097 3fc0
00000080: 0fb2 42c0 a3b6 0f3f c305 b0be 8b56 943e
00000090: 9d7e 903f 05b0 ce3e 14c4 a0bf 808d 97bd
000000a0: aaff 103e 4fc9 a83f cc70 95be 7307 d1bf
000000b0: 85d7 4bc0 633e 32be 8b94 92bf e615 67be
000000c0: 596a 84bf 90ff 1bc0 6b71 d63e 20e5 52bf
000000d0: d3bc 213f da0b 46bf 6d51 28bf d044 1b3f
000000e0: 0449 803f 7d91 15c0 bbf6 683f e883 17c0
000000f0: 36bf fcbf 5fad 25c0 8810 4abf ec31 c8be
00000100: 696c f9be e4b3 babd 2833 13bf 49a4 713f
00000110: 3147 05bf e0cb 883e f0ba 9bbf 35ca 193f
00000120: 67ef 51c0 5814 273f 573b 66bf f6a1 f3bf
00000130: 1821 4fbf 0a4c 30c0 2d23 113f 9a9a 2cbf
00000140: 3d30 153f 90a5 efbf 4d09 823f 200f b3bf
00000150: 8ba6 573f 263a 04bf 9de8 08c0 e766 ecbf
00000160: cfc4 f83e 94d5 bebe 79ed dfbf 955f e8be
00000170: 31fa 0fc0 515b e5bf 4165 163e c1e6 543e
00000180: 1304 94bf 5bdf 44c0 4230 f63e c689 59c0
00000190: cfb3 36bf b44d 16c0 12fd 843f d955 2cc0
000001a0: 79e7 4a3f 0d5f b9bf 9acf b53e 781f 703f
000001b0: cafb 81bf c2d4 83be d348 31c0 bcb4 113f
-2.0203848 0.69206834 -2.5149086 -1.8055253 0.22634003 0.61093366 -0.32912725 1.1411885
-2.4919906 -1.1444792 -2.7651732 -3.862434 -2.086285 -1.9593664 1.1679881 0.4940513
-0.50103223 0.46869263 0.56247437 -0.90093625 0.46274692 0.22922239 -2.381448 -0.6577877
0.59567165 0.24118052 0.018298915 -3.6755097 0.66661495 -1.1776245 -0.2228757 -2.993641
-3.0421178 0.56138057 -0.34379396 0.28972277 1.1288639 0.40368667 -1.2559838 -0.07400036
0.14160028 1.3186435 -0.2918762 -1.6330398 -3.1850293 -0.17406611 -1.1451582 -0.22566947
-1.0344955 -2.4374733 0.41883406 -0.82380867 0.6317875 -0.77361834 -0.65749246 0.60651875
1.0022283 -2.337005 0.9100148 -2.367426 -1.9745853 -2.5887067 -0.78931475 -0.39100587
-0.48715523 -0.09116343 -0.57499933 0.94391304 -0.52061754 0.26718044 -1.2166424 0.6007417
-3.280237 0.6526542 -0.89934295 -1.9033802 -0.8090987 -2.754641 0.566943 -0.67423403
0.5827673 -1.8722401 1.0159088 -1.3988991 0.842385 -0.5165123 -2.1391976 -1.8468903
0.48587653 -0.37272322 -1.7494346 -0.45385423 -2.2496455 -1.7918493 0.14687063 0.2079115
-1.1563743 -3.0761325 0.48083693 -3.399034 -0.71368116 -2.3484926 1.0389731 -2.6927397
0.7925945 -1.4482132 0.3550995 0.9379802 -1.0154965 -0.2574826 -2.7700698 0.56916404

l3.bias f4 [14]
00000000: 3716 103e 7adc 1c3f 6811 34bf 2439 9bbe
00000010: a2b2 16bf 2050 08be 3486 bb3e 9935 db3e
00000020: ba0a eabe 86b1 b1be bdc7 1ebe 4a3a e43e
00000030: 0619 523f e28a 4fbe
0.14070974 0.6127392 -0.7033906 -0.30317032 -0.5886632 -0.13311815 0.36625826 0.4281433
-0.4571131 -0.34705752 -0.15505882 0.4457572 0.8206943 -0.20267823
